…
	(29): optimizer_args_betas = (0.9, 0.999)
	(30): optimizer_bn_wd = False
	(31): optimizer_clip_grad = 20
	(32): optimizer_lr = 0.0001
	(33): optimizer_scheduler_gamma = 0.1
	(34): optimizer_scheduler_periods = [70, 10]
	(35): optimizer_true_wd = False
	(36): optimizer_type = Adam
	(37): optimizer_wd = 0.0
	(38): training_epochs = 1
	(39): training_eval_iters = 3000
	(40): training_save_iters = 1000
	(41): training_show_iters = 50
	(42): training_start_iters = 0
	(43): training_stats_iters = 100000
)
Construct dataset.
86460763 training items found.
50000 valid items found.
Construct model.
BCNLanguage(
  (proj): Linear(in_features=37, out_features=512, bias=False)
  (token_encoder): PositionalEncoding(
    (dropout): Dropout(p=0.1, inplace=False)
  )
  (pos_encoder): PositionalEncoding(
    (dropout): Dropout(p=0, inplace=False)
  )
  (model): TransformerDecoder(
    (layers): ModuleList(
      (0): TransformerDecoderLayer(
        (multihead_attn): MultiheadAttention(
          (out_proj): Linear(in_features=512, out_features=512, bias=True)
        )
        (linear1): Linear(in_features=512, out_features=2048, bias=True)
        (dropout): Dropout(p=0.1, inplace=False)
        (linear2): Linear(in_features=2048, out_features=512, bias=True)
        (norm2): LayerNorm((512,), eps=1e-05, elementwise_affine=True)
        (norm3): LayerNorm((512,), eps=1e-05, elementwise_affine=True)
        (dropout2): Dropout(p=0.1, inplace=False)
        (dropout3): Dropout(p=0.1, inplace=False)
      )
      (1): TransformerDecoderLayer(
        (multihead_attn): MultiheadAttention(
          (out_proj): Linear(in_features=512, out_features=512, bias=True)
        )
        (linear1): Linear(in_features=512, out_features=2048, bias=True)
        (dropout): Dropout(p=0.1, inplace=False)
        (linear2): Linear(in_features=2048, out_features=512, bias=True)
        (norm2): LayerNorm((512,), eps=1e-05, elementwise_affine=True)
        (norm3): LayerNorm((512,), eps=1e-05, elementwise_affine=True)
        (dropout2): Dropout(p=0.1, inplace=False)
        (dropout3): Dropout(p=0.1, inplace=False)
      )
      (2): TransformerDecoderLayer(
        (multihead_attn): MultiheadAttention(
          (out_proj): Linear(in_features=512, out_features=512, bias=True)
        )
        (linear1): Linear(in_features=512, out_features=2048, bias=True)
        (dropout): Dropout(p=0.1, inplace=False)
        (linear2): Linear(in_features=2048, out_features=512, bias=True)
        (norm2): LayerNorm((512,), eps=1e-05, elementwise_affine=True)
        (norm3): LayerNorm((512,), eps=1e-05, elementwise_affine=True)
        (dropout2): Dropout(p=0.1, inplace=False)
        (dropout3): Dropout(p=0.1, inplace=False)
      )
      (3): TransformerDecoderLayer(
        (multihead_attn): MultiheadAttention(
          (out_proj): Linear(in_features=512, out_features=512, bias=True)
        )
        (linear1): Linear(in_features=512, out_features=2048, bias=True)
        (dropout): Dropout(p=0.1, inplace=False)
        (linear2): Linear(in_features=2048, out_features=512, bias=True)
        (norm2): LayerNorm((512,), eps=1e-05, elementwise_affine=True)
        (norm3): LayerNorm((512,), eps=1e-05, elementwise_affine=True)
        (dropout2): Dropout(p=0.1, inplace=False)
        (dropout3): Dropout(p=0.1, inplace=False)
      )
    )
  )
  (cls): Linear(in_features=512, out_features=37, bias=True)
)
Construct learner.
Start training.
epoch 0 iter 50: loss = 2.2522,  smooth loss = 2.4595
epoch 0 iter 100: loss = 2.0135,  smooth loss = 2.2076
epoch 0 iter 150: loss = 1.8111,  smooth loss = 1.9843
epoch 0 iter 200: loss = 1.6503,  smooth loss = 1.8059
epoch 0 iter 250: loss = 1.5992,  smooth loss = 1.6802
epoch 0 iter 300: loss = 1.5137,  smooth loss = 1.5875
…
	(29): optimizer_args_betas = (0.9, 0.999)
	(30): optimizer_bn_wd = False
	(31): optimizer_clip_grad = 20
	(32): optimizer_lr = 0.0001
	(33): optimizer_scheduler_gamma = 0.1
	(34): optimizer_scheduler_periods = [70, 10]
	(35): optimizer_true_wd = False
	(36): optimizer_type = Adam
	(37): optimizer_wd = 0.0
	(38): training_epochs = 10
	(39): training_eval_iters = 6000
	(40): training_save_iters = 1000
	(41): training_show_iters = 50
	(42): training_start_iters = 0
	(43): training_stats_iters = 100000
)
Construct dataset.
86460763 training items found.
50000 valid items found.
Construct model.
BCNLanguage(
  (proj): Linear(in_features=183, out_features=512, bias=False)
  (token_encoder): PositionalEncoding(
    (dropout): Dropout(p=0.1, inplace=False)
  )
  (pos_encoder): PositionalEncoding(
    (dropout): Dropout(p=0, inplace=False)
  )
  (model): TransformerDecoder(
    (layers): ModuleList(
      (0): TransformerDecoderLayer(
        (multihead_attn): MultiheadAttention(
          (out_proj): Linear(in_features=512, out_features=512, bias=True)
        )
        (linear1): Linear(in_features=512, out_features=2048, bias=True)
        (dropout): Dropout(p=0.1, inplace=False)
        (linear2): Linear(in_features=2048, out_features=512, bias=True)
        (norm2): LayerNorm((512,), eps=1e-05, elementwise_affine=True)
        (norm3): LayerNorm((512,), eps=1e-05, elementwise_affine=True)
        (dropout2): Dropout(p=0.1, inplace=False)
        (dropout3): Dropout(p=0.1, inplace=False)
      )
      (1): TransformerDecoderLayer(
        (multihead_attn): MultiheadAttention(
          (out_proj): Linear(in_features=512, out_features=512, bias=True)
        )
        (linear1): Linear(in_features=512, out_features=2048, bias=True)
        (dropout): Dropout(p=0.1, inplace=False)
        (linear2): Linear(in_features=2048, out_features=512, bias=True)
        (norm2): LayerNorm((512,), eps=1e-05, elementwise_affine=True)
        (norm3): LayerNorm((512,), eps=1e-05, elementwise_affine=True)
        (dropout2): Dropout(p=0.1, inplace=False)
        (dropout3): Dropout(p=0.1, inplace=False)
      )
      (2): TransformerDecoderLayer(
        (multihead_attn): MultiheadAttention(
          (out_proj): Linear(in_features=512, out_features=512, bias=True)
        )
        (linear1): Linear(in_features=512, out_features=2048, bias=True)
        (dropout): Dropout(p=0.1, inplace=False)
        (linear2): Linear(in_features=2048, out_features=512, bias=True)
        (norm2): LayerNorm((512,), eps=1e-05, elementwise_affine=True)
        (norm3): LayerNorm((512,), eps=1e-05, elementwise_affine=True)
        (dropout2): Dropout(p=0.1, inplace=False)
        (dropout3): Dropout(p=0.1, inplace=False)
      )
      (3): TransformerDecoderLayer(
        (multihead_attn): MultiheadAttention(
          (out_proj): Linear(in_features=512, out_features=512, bias=True)
        )
        (linear1): Linear(in_features=512, out_features=2048, bias=True)
        (dropout): Dropout(p=0.1, inplace=False)
        (linear2): Linear(in_features=2048, out_features=512, bias=True)
        (norm2): LayerNorm((512,), eps=1e-05, elementwise_affine=True)
        (norm3): LayerNorm((512,), eps=1e-05, elementwise_affine=True)
        (dropout2): Dropout(p=0.1, inplace=False)
        (dropout3): Dropout(p=0.1, inplace=False)
      )
    )
  )
  (cls): Linear(in_features=512, out_features=183, bias=True)
)
Construct learner.
Start training.
ModelConfig(
	(0): dataset_case_sensitive = False
	(1): dataset_charset_path = data/charset_bl.txt
	(2): dataset_data_aug = True
	(3): dataset_eval_case_sensitive = False
	(4): dataset_image_height = 32
	(5): dataset_image_width = 128
	(6): dataset_max_length = 183
	(7): dataset_multiscales = False
	(8): dataset_num_workers = 4
…
	(29): optimizer_args_betas = (0.9, 0.999)
	(30): optimizer_bn_wd = False
	(31): optimizer_clip_grad = 20
	(32): optimizer_lr = 0.0001
	(33): optimizer_scheduler_gamma = 0.1
	(34): optimizer_scheduler_periods = [70, 10]
	(35): optimizer_true_wd = False
	(36): optimizer_type = Adam
	(37): optimizer_wd = 0.0
	(38): training_epochs = 10
	(39): training_eval_iters = 6000
	(40): training_save_iters = 1000
	(41): training_show_iters = 50
	(42): training_start_iters = 0
	(43): training_stats_iters = 100000
)
Construct dataset.
722712 training items found.
64982 valid items found.
Construct model.
BCNLanguage(
  (proj): Linear(in_features=55, out_features=512, bias=False)
  (token_encoder): PositionalEncoding(
    (dropout): Dropout(p=0.1, inplace=False)
  )
  (pos_encoder): PositionalEncoding(
    (dropout): Dropout(p=0, inplace=False)
  )
  (model): TransformerDecoder(
    (layers): ModuleList(
      (0): TransformerDecoderLayer(
        (multihead_attn): MultiheadAttention(
          (out_proj): Linear(in_features=512, out_features=512, bias=True)
        )
        (linear1): Linear(in_features=512, out_features=2048, bias=True)
        (dropout): Dropout(p=0.1, inplace=False)
        (linear2): Linear(in_features=2048, out_features=512, bias=True)
        (norm2): LayerNorm((512,), eps=1e-05, elementwise_affine=True)
        (norm3): LayerNorm((512,), eps=1e-05, elementwise_affine=True)
        (dropout2): Dropout(p=0.1, inplace=False)
        (dropout3): Dropout(p=0.1, inplace=False)
      )
      (1): TransformerDecoderLayer(
        (multihead_attn): MultiheadAttention(
          (out_proj): Linear(in_features=512, out_features=512, bias=True)
        )
        (linear1): Linear(in_features=512, out_features=2048, bias=True)
        (dropout): Dropout(p=0.1, inplace=False)
        (linear2): Linear(in_features=2048, out_features=512, bias=True)
        (norm2): LayerNorm((512,), eps=1e-05, elementwise_affine=True)
        (norm3): LayerNorm((512,), eps=1e-05, elementwise_affine=True)
        (dropout2): Dropout(p=0.1, inplace=False)
        (dropout3): Dropout(p=0.1, inplace=False)
      )
      (2): TransformerDecoderLayer(
        (multihead_attn): MultiheadAttention(
          (out_proj): Linear(in_features=512, out_features=512, bias=True)
        )
        (linear1): Linear(in_features=512, out_features=2048, bias=True)
        (dropout): Dropout(p=0.1, inplace=False)
        (linear2): Linear(in_features=2048, out_features=512, bias=True)
        (norm2): LayerNorm((512,), eps=1e-05, elementwise_affine=True)
        (norm3): LayerNorm((512,), eps=1e-05, elementwise_affine=True)
        (dropout2): Dropout(p=0.1, inplace=False)
        (dropout3): Dropout(p=0.1, inplace=False)
      )
      (3): TransformerDecoderLayer(
        (multihead_attn): MultiheadAttention(
          (out_proj): Linear(in_features=512, out_features=512, bias=True)
        )
        (linear1): Linear(in_features=512, out_features=2048, bias=True)
        (dropout): Dropout(p=0.1, inplace=False)
        (linear2): Linear(in_features=2048, out_features=512, bias=True)
        (norm2): LayerNorm((512,), eps=1e-05, elementwise_affine=True)
        (norm3): LayerNorm((512,), eps=1e-05, elementwise_affine=True)
        (dropout2): Dropout(p=0.1, inplace=False)
        (dropout3): Dropout(p=0.1, inplace=False)
      )
    )
  )
  (cls): Linear(in_features=512, out_features=55, bias=True)
)
Construct learner.
Start training.
